WakeWord/voice_recognition_model.tflite (tflite, 38968 bytes, 6 tensors)

sequential/dense_1/BiasAdd/ReadVariableOp f4 [64]
00000000: 50cb 3ebd 9ace 863e 5c88 8ebe 8b55 b8bd
00000010: b322 7cbd b810 a23d 3909 8dbe 7340 aa3d
00000020: cd51 c23d d623 dcbd c4d3 afbd f0c3 b839
00000030: 302b c0bd ecdf 81bd b19e 03bd 56ee 4e3e
00000040: 6f12 00bd 78b8 92bc 8457 a7bd 0e5a 6ebd
00000050: 181e 6b3c 5670 c0bd 16c7 acbb b495 a33c
00000060: f4e8 b43c 1a58 bb3b 4bcd 623d 7c4b 8ebd
00000070: 0ef1 43be 5303 0fbe a035 46bd bee6 05be
00000080: 21a6 26be 5416 9d3e a4f8 213f b7ec cabc
00000090: 4b62 f1bd b483 46be cff7 6bbd 8bf5 97bd
000000a0: dd62 69bd 73e4 e53c e2f3 98bd 36a3 a9bd
000000b0: 1613 e13c 3960 e5bd 349b 033e e973 f9be
000000c0: 8d1c 15bd 0f36 893d 35cf 14be 8808 a13c
000000d0: a701 55bd 33a7 303e 7da4 593d ad17 07bf
000000e0: c69d 963e f998 c93d 4538 13bc bcb8 77bd
000000f0: 397d 98be 5754 42bd 4b4d 28bd 6322 9bbd
-0.046580613 0.263295 -0.2783841 -0.09000691 -0.06155653 0.07913345 -0.275461 0.08313074
0.094882585 -0.10749023 -0.08585313 0.000352412 -0.09383237 -0.06341538 -0.03213376 0.20208105
-0.03126758 -0.017910227 -0.08170989 -0.05819135 0.014350437 -0.093964264 -0.0052727563 0.019968845
0.022083737 0.0057172896 0.055371564 -0.06947991 -0.19134924 -0.13966112 -0.048390985 -0.13076302
-0.1627431 0.30681098 0.6327002 -0.024771078 -0.11786326 -0.19386178 -0.057609376 -0.074198805
-0.05697905 0.028063035 -0.07468392 -0.08283083 0.027474921 -0.11199994 0.12852174 -0.48721245
-0.03640418 0.06699764 -0.14532168 0.019657388 -0.05200353 0.17251281 0.053135384 -0.527705
0.29417247 0.0984363 -0.008985584 -0.06047891 -0.29783037 -0.047443714 -0.041089337 -0.07574918

sequential/dense_2/BiasAdd/ReadVariableOp f4 [3]
00000000: 3b8b 8bbc 5f69 223e 0e74 1cbe
-0.017034164 0.15860508 -0.15278646

sequential/dense/BiasAdd/ReadVariableOp f4 [128]
00000000: 7949 74bc 796f 66bd b463 d1bd 2df9 ba3b
00000010: e1bc 9fbc 7126 f33c caa1 cd3d 0000 0000
00000020: f1a6 773d e0bf 303e 9b7c b93d 5daf 0dbe
00000030: 099d 0b3d 3bb1 73be 0000 0000 aeb5 55bd
00000040: 0000 0000 ad04 0c3e a2cd f53d 42fc d13d
00000050: 0000 0000 0dc9 a33d a150 79be 33dc 863e
00000060: 9013 0c3d 5f2c 323e dbff 2abc a056 76bd
00000070: 9995 c3bd 8b08 68be cdd6 83bd 0000 0000
00000080: 625e 4b3e 5837 153d 62c4 51be bc26 8fbc
00000090: a785 a23e ada3 943d 95e7 43bc 3373 63be
000000a0: 0000 0000 22f0 f63d 0296 abbe 9c76 c8bd
000000b0: 069c 693b 52c0 4cbe 8c07 1c3d a642 16bd
000000c0: 0000 0000 0000 0000 502d c1be edd8 0ebd
000000d0: af7c ccbd cb68 06bd daa1 08bf 9257 cb3b
000000e0: 0000 0000 ef84 80be 4e84 ba3c d2f2 03be
000000f0: 0000 0000 0000 0000 840f 283f 30f7 b3bc
00000100: 0000 0000 0000 0000 eef5 29be ef19 443d
00000110: d7b0 c0bd 3290 063e 19f9 5dbd 19f7 20be
00000120: b3e9 8f3e 07ce 813e 520f 4bbd f57b 36be
00000130: 0000 0000 eb67 863e 6ae6 a43d 9726 013e
00000140: eeaa 39bd 984b c2bd 7679 543e b9b0 803e
00000150: c968 4c3e 0000 0000 c78c 2fbc 6985 343e
00000160: 0000 0000 4b7e 0abe fed5 21bf fbe5 513d
00000170: c11e 76bc e6f3 103e 8951 143d e6f9 bdbe
00000180: cdde 26be 8d67 44be ab46 413e 0904 703d
00000190: 0000 0000 5355 8abb d86d 17bd b40e eebe
000001a0: 1e6c 353e 5e99 483c fde0 68bd 0000 0000
000001b0: 9825 0cbd e3ae 99b9 0000 0000 e568 413e
000001c0: b053 23bd 1d5b bfbc 0000 0000 6e2d 433e
000001d0: 0000 0000 5c7d 87be 5da7 d43d 81ba 34bc
000001e0: 28c8 533c 2bd9 62be 43ca ae3d d73c 223f
000001f0: 2add 5d3d 0000 0000 d60e 30be 8629 e9be
-0.014910095 -0.056258652 -0.10224095 0.0057059736 -0.019499244 0.029681416 0.100406244 0.0
0.060461942 0.17260695 0.0905697 -0.13836427 0.034085307 -0.23798077 0.0 -0.052175216
0.0 0.13673659 0.12002112 0.102531925 0.0 0.07997332 -0.24347164 0.26339874
0.034198344 0.17399739 -0.010436977 -0.060141206 -0.09550018 -0.22659509 -0.064374544 0.0
0.19860223 0.036429733 -0.2048507 -0.017474525 0.31742594 0.07257781 -0.011957069 -0.22211914
0.0 0.120575204 -0.33512884 -0.09788248 0.0035645976 -0.1999524 0.038093135 -0.036684655
0.0 0.0 -0.37729883 -0.034874845 -0.09984719 -0.032814782 -0.53371966 0.0062055076
0.0 -0.2510142 0.022768166 -0.12885597 0.0 0.0 0.65648675 -0.021968454
0.0 0.0 -0.16597721 0.047876295 -0.094087295 0.13140944 -0.054192636 -0.1571926
0.28107986 0.253525 -0.049575157 -0.17820723 0.0 0.26251158 0.080517605 0.12612377
-0.045329027 -0.094870746 0.20749459 0.2513483 0.19961847 0.0 -0.010714716 0.17629017
0.0 -0.1352474 -0.6321715 0.051244717 -0.015021981 0.1415554 0.03621057 -0.3710472
-0.16295929 -0.19180126 0.18874614 0.0585976 0.0 -0.004221597 -0.03696999 -0.46495593
0.17717025 0.012243597 -0.05685519 0.0 -0.03421554 -0.00029312735 0.0 0.1888767
-0.039874732 -0.023358876 0.0 0.19060299 0.0 -0.2646283 0.103834845 -0.011030794
0.012926139 -0.22153156 0.08534672 0.63374084 0.054165997 0.0 -0.1719316 -0.45539492

sequential/dense/MatMul f4 [128, 5]
00000000: d109 003d ce08 4b3d 9b32 223e 3393 01be
00000010: b68f bc3d dcbe ed3b 56f2 973e 2a49 b33e
00000020: f496 5c3e 9b0d 48bc 7688 8a3e b3b6 3cbd
00000030: 2a79 013e 47e1 d9bd eccf b73c 4ea5 2f3c
00000040: 427b b63d 1138 2abe 14dc 953d c601 843d
00000050: 240a a93d 367a 1e3c b3b8 fcbd f095 553e
00000060: 105d c93d 9755 493e 97d9 5dbe aa42 ee3d
00000070: 622e 7d3d 12fb 0a3e eae0 37be ecb9 04be
00000080: bf49 0d3e 6ab1 9e3e 02e0 3cbd 002a eebb
00000090: 280f 473e 620b bfbd 68a4 b4bc b60e 0f3e
000000a0: 8733 8dbd d710 8b3e afb6 de3d 1044 20be
000000b0: bd1e c7bd e80a e6bd 7ad7 763e 26a3 70bd
000000c0: 2e5a cd3c e43d 13be a3a0 083e bca7 bcbb
000000d0: 5151 683e bcf6 68be ce86 ec3d 2252 553c
000000e0: 7266 2a3e 7683 ec3d 62cd 95bd 7c7c fbbc
000000f0: 6992 e1bd caa1 5cbe 75dc 8d3e 12d0 013d
00000100: 4f5b 083d eae8 ef3d ea03 83bd 2b21 c4bd
00000110: 91d7 eb3d 6b51 403e 3c4a bf3d 144a e13d
00000120: 9e87 adbd ce89 003e f498 d93d ade8 f73d
00000130: 1568 203b ecf3 ffbd 4626 153e d0d1 e73d
00000140: b8ff 253d 2012 e63d c0a0 0e3b 54c4 273e
00000150: e4c8 053e 7761 fbbd f51e 2a3d 552e 6cbe
00000160: 760e 203e be9f 2f3e 9bd5 843e 60a9 363d
00000170: dc24 ccbd 6d38 6a3c 3244 83be 7c4d 4bbd
00000180: 3bcc 293e 5fa2 5e3e 248b 03be 5ae0 89ba
00000190: 10af cd3d 0c0e 953d eca5 e6bd 28c3 563e
000001a0: ec9e 2d3e 9fab 3abe 5508 51be 9a58 1a3e
000001b0: 8fd1 963e abd5 763d 5713 abbd 86cc febd
000001c0: e841 0c3e 89ee 593e 93bf c8bd 2269 c2bd
000001d0: f928 2f3e c9ad d8bd 50eb 30be ef89 933e
000001e0: 6afe 54bc 27ba 0abe 8d98 b73e c4cb 1dbe
000001f0: 7419 6ebd 8503 16be f614 6abc 17be 953e
00000200: 5192 c6bc 3b5e cf3d 92f9 593e 9519 043d
00000210: 86e9 b23d b2d0 2cbd 4643 0abe 1b39 16bd
00000220: a80d 033e b175 67bd a947 073e 74bc 7cbd
00000230: 1463 983d 992f 75be 62ff 773e 0658 9ebd
00000240: 55f8 b13d ddf6 9bbd 79ad 8f3e 47e4 bc3a
00000250: 38c7 01be 0140 dfbd 5db2 bb3d 76be 273d
00000260: bfef 7ebc 5860 0f3f e9f7 5dbe 72ab 3b3e
00000270: 36b0 053e 90be 3e3e 783c 3c3d f082 333e
00000280: b1cd eabd c547 4e3e 23f0 0abe 12ed 863d
00000290: e2af 93bd 9e69 57be 57e7 f7bd c429 c63d
000002a0: 4c05 acbc 61d7 843e 385c 5a3e 6eeb 053d
000002b0: 2e6c 393c 3ab5 9cbd f1ae 53bb f27b 63bc
000002c0: fb01 4c3e 5f28 4cbd c4b2 203e 00ee afbd
000002d0: 6b1b 98be de63 043e e161 183e 447f 1f3e
000002e0: 8cc8 343e bfc4 773d b916 f8bc 3149 0f3e
000002f0: f7e0 90bd 4400 143e 4193 a3be 612f 903d
00000300: 7e0a 343e 4f67 9a3d 6740 873d 159d ae3d
00000310: 3d38 d5bc 683c 50bd 4c52 353d 929c eb3d
00000320: e0d0 ee3d b08b 8b3c 70e9 83bc 7e9d 473e
00000330: a8aa 563d b7e2 0c3e 0d24 1b3e e32d 1cbe
00000340: d6d3 093d 6d46 7ebe 9105 f93d 090f 87bd
00000350: 5a0b 5cbe 2465 debd f728 b03e 9432 55be
00000360: 77c2 9d3e 99d3 85bd 02d6 483e d1ba 02be
00000370: 20e4 19bd 17af 2b3f 3eeb 273f 9d50 943e
00000380: 623b 6cbd ac11 2fbe b0bf 40bd 9d23 523d
00000390: a997 d9bd 7d50 9d3e 04e8 113e 92aa 1cbe
000003a0: 6455 6a3e 3a7a 2dbd 0803 5e3e 87bd a8bd
000003b0: 6b74 d8bc 77ac 923c ccfb dc3d 427f d43d
000003c0: 8404 1f3e ec98 993d f8ba 843c 70c1 5c3d
000003d0: 509f a53d 8062 f73c 9c80 893d 2656 493e
000003e0: 4043 fc3d c890 c33c 94ee b33d b9a0 d2bd
000003f0: bad1 cc3c a8dc a1bd 9ae5 68bd 5b16 f93d
0.03125936 0.049568944 0.15839617 -0.12653808 0.09207098 0.007255418 0.29677075 0.35016757
0.21541959 -0.012210275 0.27057236 -0.046072673 0.12643877 -0.10638671 0.022438012 0.010720564
0.08910228 -0.1662295 0.07317367 0.06445651 0.08253887 0.009672692 -0.12339916 0.20857978
0.098322034 0.19661556 -0.21665035 0.11633809 0.061811812 0.13572338 -0.17956892 -0.12961549
0.13797663 0.3099473 -0.046112068 -0.0072681904 0.19439375 -0.09328343 -0.022051051 0.13970456
-0.06894594 0.27161285 0.10874688 -0.15650964 -0.0972266 -0.11232549 0.24105635 -0.05874934
0.025067415 -0.14379078 0.13342528 -0.0057573 0.2268727 -0.22750372 0.115491495 0.01302007
0.16640642 0.11548512 -0.07314564 -0.030699007 -0.11014254 -0.21546093 0.27707258 0.031692572
0.033290204 0.11714347 -0.06397231 -0.09576639 0.115157254 0.18781058 0.09340331 0.110004574
-0.084731326 0.12552568 0.106248766 0.12104926 0.00244761 -0.12497696 0.14565381 0.113193154
0.040527076 0.11233926 0.0021763295 0.16383487 0.13064915 -0.12274449 0.04153343 -0.2306455
0.15630516 0.1715078 0.25944218 0.044595122 -0.09967968 0.0142956795 -0.25637966 -0.04963444
0.16581814 0.21741627 -0.12846047 -0.0010519132 0.10043156 0.0727807 -0.11262116 0.20972884
0.16955155 -0.18229531 -0.20413335 0.15072861 0.29456756 0.060262363 -0.08353298 -0.124413535
0.13697016 0.212824 -0.09802165 -0.09492709 0.17105474 -0.10580022 -0.17277265 0.28816172
-0.01300011 -0.13547574 0.35858575 -0.15409762 -0.058129743 -0.1464978 -0.014287224 0.2924659
-0.024239691 0.10125395 0.2128661 0.03225096 0.08735947 -0.042191215 -0.13502225 -0.036675554
0.12798178 -0.056508724 0.1321093 -0.06170316 0.07440773 -0.23943938 0.24218515 -0.07731633
0.08689944 -0.07615445 0.28062037 0.0014411294 -0.12673652 -0.1090088 0.091648795 0.040953122
-0.01556009 0.56006384 -0.21676601 0.1832712 0.130555 0.18627381 0.045956105 0.17530417
-0.11465014 0.20144565 -0.13568167 0.06588186 -0.07211281 -0.21036384 -0.121046714 0.09675935
-0.02099862 0.2594557 0.21324241 0.032695226 0.011317296 -0.07651754 -0.0032300318 -0.013884531
0.1992263 -0.04984319 0.15693194 -0.08590317 -0.29708418 0.12928721 0.14881088 0.15575892
0.17654628 0.060490366 -0.030284273 0.13992764 -0.07074159 0.14453226 -0.31948283 0.07040287
0.17582127 0.07539236 0.06604081 0.08526055 -0.026027793 -0.050838858 0.044267938 0.11504473
0.116609335 0.017034382 -0.016102523 0.19493672 0.052408844 0.1375836 0.15150471 -0.1525188
0.033649288 -0.24831553 0.12159265 -0.065946646 -0.21488705 -0.10859135 0.34406254 -0.20820075
0.30812427 -0.065345 0.19612888 -0.12766577 -0.037571073 0.6706404 0.65593326 0.28967753
-0.05767382 -0.17096585 -0.047057807 0.051303495 -0.1062463 0.3072547 0.14248663 -0.15299442
0.22884136 -0.042352892 0.21680844 -0.082392745 -0.0264227 0.017904503 0.10790214 0.10375835
0.15529066 0.07499871 0.016202435 0.053895414 0.08087027 0.030198336 0.067139834 0.1966177
0.123175144 0.023872748 0.087857395 -0.10284562 0.02500235 -0.07903415 -0.05685959 0.12162467

sequential/dense_1/MatMul f4 [64, 128]
00000000: 5612 bf3d 8d3d 31be 869c 0fbc e0ee 1b3d
00000010: bd31 87bd 9550 cbbd 8a63 bb3d c49f ebbd
00000020: a32e dc3d 8236 903d a057 df3d 7a5e 2fbe
00000030: 24bd 6f3d 4d8e ec3c 67f5 30be a7bd 1f3e
00000040: 4036 e2bb 2449 10bd a89b 51be 2cf5 fcbb
00000050: ed20 15be 209b ef3c a096 0c3d 0683 aebd
00000060: 3215 a03d 1bba 08be ba84 e23d 74c9 2ebe
00000070: 3c79 34be 803c d43d 2063 5fbd e802 ecbc
00000080: ca83 08bb cf33 11be f19a 24be 4a48 9abd
00000090: d751 253e 5104 28be c075 06bc e29b 8fbb
000000a0: c845 e73c 5e5e 98bc fa01 663d a877 783d
000000b0: 3572 293e 6f04 19be 7bde 3cbd 5edb b7bd
000000c0: d191 cabd 7a92 df3d cf26 34bd d013 20bc
000000d0: 40e0 afbd c506 18be 41c3 c93d d900 d43c
000000e0: 1c43 0f3d d9ae edbd a1b9 33be 8521 10be
000000f0: c4a9 65bd 313b 163e a63b 66bd ee7a 823d
00000100: 6fd7 eabd 6037 863b bbfb 2639 3ec8 b33c
00000110: eed6 06be bc31 53bd 305d 9d3c 0087 053d
00000120: f645 efbd 6b0d b4bd 8028 dd3a 0133 24be
00000130: 8037 623c 1907 fe3c 99ae 23be c657 babd
00000140: 5841 25be 1853 22be 9fe2 30be 5b96 073e
00000150: ec72 983d 0f8f 0b3e a074 43bc a109 483e
00000160: d4a2 1c3d b7d7 643d 905a 56bd 0969 0ebe
00000170: 543c 97bd 11cd 0a3e 9616 8abd eaf9 ad3d
00000180: 80be 103c 80e6 c73b 3919 c4bd e200 b03d
00000190: cc10 2b3d 280c e6bc 2ae8 04be 647b d9bd
000001a0: 58cc f63c 3356 59be 53ce ac3c 02f5 ecbd
000001b0: 6123 d1bd cdd4 81bd 6071 60bc 9499 233d
000001c0: e13e fd3c ec76 673d d5f1 97bd 894b c4bd
000001d0: 207b d23c bb0d 95bd 898f 0e3d 8c60 733d
000001e0: 6863 293d 5c3a 9ebd 4099 a1bb def5 15be
000001f0: 90d8 eebd bb20 debd 2056 28be 7567 51be
00000200: bea5 b9bd fe20 ff3d 2bc6 96bd 4794 343e
00000210: 601a d2bb a518 823e fcdf aabe 9654 c73d
00000220: af52 1e3e 987c 183e 2629 643e 4dd9 d4bd
00000230: 1e6f 22bd e197 7d3e 0b70 0dbe 2e61 bd3d
00000240: 77e4 2e3e 6ea2 7dbe bb6e 49be 8381 31be
00000250: 1661 8d3d 9fd4 fabd 2fc8 40be 1528 1cbe
00000260: e3a1 faba 952e d3bd 1065 eebc ee3e 92bc
00000270: 16ec a4bc 0a1b ef3d b287 a0bd 3259 7fbd
00000280: 4f79 ffbd 356c a93c 2b91 0b3d 69ae 003c
00000290: ab41 90bd fc47 5e3e 0e41 983d 4d5a 973d
000002a0: 39ec 023e eed0 113c b006 ed3d c6fc e23c
000002b0: cd32 bc3e fe0b 373c 7533 803c cadd 17be
000002c0: 644d 0ebe f861 fabd 8a1c 563d 9091 663c
000002d0: 4f18 ecbd 74e2 133d 396b 71bc 20fa ae3d
000002e0: eef5 ccbd ad45 23be e80c 593b 1d65 cebc
000002f0: b77f 013e a225 2ebe 0432 ae3d b257 0cbe
00000300: 2444 0cbe 1fea 06be 8403 403d 9e4b 55be
00000310: 7c87 083d e13f 903e bcf4 243e fada fdbd
00000320: 5c7d 603d ec0f 403e b8a7 32bc 6cdd 5cbd
00000330: 8a00 05be 4e56 2ebe 830a 903e ca1a 5ebd
00000340: 445e ba3e cc1f babc c698 20be 5e97 c93d
00000350: f88a 913b 41d8 d0bd c887 1c3d d0d0 06bd
00000360: 1704 203e 08cc debc 7f92 5a3e caf6 60bc
00000370: 38aa 33bd 6963 a23e 675d f43c 9e23 cabe
00000380: 0179 80be 40f1 0f3e 307c 06bd 38c6 d3bc
00000390: c2d1 b43d cb63 f4bc 0b6d b2bd 7c44 f7bd
000003a0: 4feb 09bf 16e2 2cbe 13ca a8be 8648 9f3d
000003b0: ca77 82bd 1a78 36be 9ac1 e53d edae 423e
000003c0: bcae 553e 74fe 4ebd 42f2 f33d abe0 3fbd
000003d0: 2972 1a3e d2a8 36bd 5810 883e 364e e5bd
000003e0: 8823 8f3d 4304 f1bd 8535 8b3e 8549 0ebe
000003f0: 7c8c 8dbe aad9 eb3d ad9f 12bf ec3a 4e3e
0.09329669 -0.17308636 -0.008765345 0.038069606 -0.06601284 -0.09927479 0.09149845 -0.11505082
0.10751083 0.070416465 0.10905385 -0.17125884 0.058529988 0.028876448 -0.17281114 0.1559969
-0.0069034398 -0.035226002 -0.20469534 -0.0077196565 -0.14563341 0.029248774 0.034323335 -0.085210845
0.07816543 -0.13352244 0.11060472 -0.17069036 -0.17624372 0.10363102 -0.054537892 -0.02880998
-0.0020830506 -0.1417992 -0.1607473 -0.07533319 0.161445 -0.16407897 -0.008206785 -0.0043825964
0.028231516 -0.018599685 0.05615423 0.060660988 0.16547473 -0.14943098 -0.04611061 -0.08977388
-0.098910935 0.1091661 -0.043982323 -0.009770349 -0.08587694 -0.14846332 0.09851695 0.02587931
0.03497611 -0.11605615 -0.1755128 -0.14075287 -0.056070104 0.14671017 -0.05620923 0.06371103
-0.11466872 0.0040959567 0.0001592477 0.021946069 -0.13167927 -0.051561102 0.019209474 0.03259945
-0.11683266 -0.08791622 0.0016873032 -0.16035081 0.013807178 0.031009244 -0.15984572 -0.09098773
-0.16138208 -0.1585201 -0.17273949 0.1324095 0.074437946 0.13628791 -0.011929661 0.19534923
0.038241223 0.055869784 -0.05233246 -0.13907255 -0.073845536 0.13554789 -0.06742589 0.08494933
0.008834481 0.006100476 -0.09575123 0.085939184 0.041764066 -0.028081968 -0.12979189 -0.10619238
0.030126736 -0.21224289 0.021094477 -0.11570169 -0.10211826 -0.06339417 -0.013698906 0.039941385
0.030913772 0.056509897 -0.07419173 -0.0958472 0.025693476 -0.072780095 0.034804855 0.059418246
0.041354567 -0.07725975 -0.004931599 -0.14644572 -0.116624 -0.108460866 -0.16439104 -0.20449622
-0.09064816 0.12457465 -0.07362016 0.17634688 -0.0064118356 0.25409427 -0.33374012 0.0973293
0.15461229 0.14891279 0.22281322 -0.10393009 -0.03965675 0.24764968 -0.13812272 0.09247051
0.1707934 -0.24768993 -0.19671147 -0.17334561 0.06903283 -0.122475855 -0.18826364 -0.15249665
-0.0019121732 -0.10311619 -0.029100925 -0.017852273 -0.020132106 0.11675079 -0.07838382 -0.062340923
-0.1247431 0.02068148 0.03407399 0.007854083 -0.07043775 0.21707147 0.07434283 0.073902704
0.12785424 0.00889991 0.11573541 0.027708422 0.36757508 0.011172293 0.015649537 -0.148307
-0.1389671 -0.12225717 0.05227331 0.014072791 -0.11528074 0.036104634 -0.0147350365 0.08543801
-0.10007845 -0.15944548 0.0033119265 -0.025194699 0.12646376 -0.17006543 0.085056335 -0.13705328
-0.13697869 -0.13175248 0.046878353 -0.20829627 0.033332333 0.28173736 0.16108984 -0.12395282
0.054807052 0.18756074 -0.010904245 -0.0539221 -0.12988487 -0.1702511 0.2813302 -0.054224767
0.36400044 -0.02272024 -0.15683278 0.09843324 0.004441615 -0.10197497 0.03821543 -0.032913983
0.1562656 -0.027196899 0.21344946 -0.013730714 -0.043863505 0.3171647 0.029829694 -0.394803
-0.2509232 0.14056873 -0.03283328 -0.025851354 0.08829071 -0.029832741 -0.087122045 -0.12073609
-0.5387468 -0.1688312 -0.3296667 0.077775046 -0.06370504 -0.17819253 0.11218567 0.19012041
0.20867437 -0.050535634 0.119114414 -0.04684512 0.15082611 -0.044594593 0.2657497 -0.11196558
0.06989199 -0.11768391 0.2718927 -0.13895233 -0.27646244 0.115161255 -0.57274896 0.20139664

sequential/dense_2/MatMul f4 [3, 64]
00000000: 64a2 8e3a 9225 4c3e 92a6 18bf d94d 38be
00000010: 6796 543c 4972 d4bd 5ddc 95bd 3541 143d
00000020: e4ba b7bd 7069 27bd f9ad 8b3c ccab 1d3e
00000030: c8df e8bd 5e6b cb3c c0d9 b8bd b112 d93d
00000040: 3c95 ffbd 6d43 08bf 8f03 41be 93db 38bf
00000050: ee22 52bf 24ef f9bd 10a7 92be cb75 cabd
00000060: 8e50 c23c b40e b4be 3381 c2bd 1495 b9bc
00000070: a968 2bbe 9d62 8d3d 5109 7b3d 2e4e c7bf
00000080: 737e 08bb 5e40 903d 5bda ff3e cd37 0e3d
00000090: 7e7e 3abd 0014 753e e643 78be dfcc b03d
000000a0: b65e c5be d7f5 a1bf 1533 83be c681 3b3e
000000b0: 3021 3c3d caa6 c0be 63fc 4bbe 0403 af3d
000000c0: 5372 17be 9ded 89be 2235 4f3e 6b76 5d3e
000000d0: 0ded 03be 7ea4 0dbf c6f9 83be 2a4c 0ebd
000000e0: c8d1 52be 485a 143e 717e 5dbf c9e0 0cbe
000000f0: 3274 17bf 0efc 4bbc d9fd 3ebe 311d b2bd
00000100: bfd7 80bc f430 f8bd ecb4 47be 56dd adbb
00000110: d3e8 273e 83d8 083e bcbf 03be 3480 c43d
00000120: b9a9 17bd aa18 5ebe f38b 83be fb89 10bc
00000130: d760 093d 651c d73c bc30 f63c b157 b53d
00000140: 9d84 923d 4b80 fd3d fad0 54be e2fe 3bbd
00000150: c55c b03e 3b6d 4abd 56fb 15be dc4d 8e3d
00000160: 9c1a a7bc 25a9 8dbd e9c8 b53e eb0e b4bd
00000170: e4c0 80be b969 3f3d 1545 353d b795 2b3e
00000180: 5a29 11be bcd7 9c3e c948 b3be 4dcc 9bbd
00000190: 2689 adbd af39 aa3d 74a3 a7bd b0c4 4b3e
000001a0: e94a 9cbc b33c 163e d626 033e 5d1f 8e3b
000001b0: 8f61 843d ca19 12be 66fa 9e3d 3110 ccbd
000001c0: cdf4 1a3e d656 083d e7c9 943d ad25 403e
000001d0: 4c53 56be 8597 8d3e 9157 183e e1c0 c2bd
000001e0: 756c 013d d456 a73d 66b2 233e 7a5e 5bbe
000001f0: d2cb 913c 7f72 eebd 1077 923d a336 fdbc
00000200: 153b d83d 6c59 e53d 41d9 0c3d a01d cc3e
00000210: 57d0 163d ef42 05be 7eeb 833e a787 85be
00000220: c3a9 08bd d5f3 88bd 1f26 3ebe 354d 8ebd
00000230: 2076 d8bb 8d32 5b3d 28cf 323e a0f4 46be
00000240: 62f9 463e fa55 3ebe eeec 663e 6099 f73b
00000250: 0e3d c2be d6e3 bf3d 82fc 293e e582 e03c
00000260: 3a11 e4bd 9f3c 63be ac73 a7bd 20af 5abe
00000270: 82ef 0abc 2adf d2bc 537a ccbd 2ec6 ccbc
00000280: 9781 563e 47c5 1abe a706 e93d 097d 77be
00000290: cc84 d03c 844a acbe 9267 143f 8822 74be
000002a0: 978d 0f3f d6b7 c4be 3b7a a1bd 0d21 2f3e
000002b0: 4391 87bd 5e78 9a3d 3e20 b23d eba3 d73d
000002c0: 9a13 753e aae8 b63d 9283 523d ab5b e1bd
000002d0: 7d12 7ebd bf32 323c fd14 553e 2724 aa3d
000002e0: ca10 efbd 1102 04be 4ebf 0fbe 3d79 51be
000002f0: b3c4 b5bc a98e c43d 8339 73be ba8e 49be
0.0010882136 0.19936207 -0.59629166 -0.17998447 0.012975312 -0.10373361 -0.073174216 0.036195
-0.089711934 -0.040872037 0.01705073 0.15397567 -0.11370808 0.02483147 -0.090259075 0.10599268
-0.12479636 -0.53227884 -0.18849014 -0.72210044 -0.8208455 -0.122038156 -0.28643084 -0.098857485
0.023720052 -0.35167468 -0.09497299 -0.022654094 -0.16739143 0.069035746 0.06128818 -1.5570734
-0.0020827323 0.07043527 0.4997128 0.034721185 -0.04553079 0.2393341 -0.24244651 0.08632826
-0.3854882 -1.2653149 -0.2562491 0.18311223 0.045930088 -0.3762725 -0.19920497 0.08545497
-0.14789705 -0.26939097 0.20235112 0.21627204 -0.12883396 -0.5532912 -0.257765 -0.034740604
-0.20587838 0.14487565 -0.8652106 -0.13757624 -0.59161675 -0.012450231 -0.18651523 -0.08696974
-0.015727876 -0.12118712 -0.1950261 -0.0053059263 0.16397409 0.13363843 -0.1286611 0.09594765
-0.037027095 -0.21689096 -0.2569271 -0.00882196 0.03353962 0.026258657 0.030052535 0.088546164
0.071542 0.123779856 -0.20782843 -0.045897372 0.34445778 -0.049420577 -0.14646658 0.06948444
-0.02039843 -0.069170274 0.35504845 -0.08791908 -0.25147164 0.046731684 0.044255335 0.1675633
-0.1417593 0.30633342 -0.35016468 -0.07607327 -0.084734246 0.083117835 -0.08185473 0.19899249
-0.019078689 0.14671592 0.12807783 0.004337235 0.0646392 -0.1426765 0.077626035 -0.09964026
0.15132447 0.03328594 0.07265072 0.18764372 -0.20930213 0.27654663 0.14877154 -0.09509445
0.031597573 0.08170858 0.15986022 -0.21422759 0.017797384 -0.11642932 0.071516156 -0.030909842
0.10558144 0.111986965 0.034386877 0.39866352 0.036819782 -0.13013814 0.25765604 -0.26080057
-0.033365022 -0.06687132 -0.1856923 -0.0694832 -0.0066058785 0.053515006 0.17461836 -0.19429255
0.1943107 -0.18587485 0.22551319 0.0075561255 -0.37937206 0.09369628 0.1660023 0.027406165
-0.11136098 -0.22191094 -0.081763595 -0.21355867 -0.008479955 -0.025741179 -0.09984269 -0.024996843
0.20947872 -0.15114318 0.11378222 -0.24168791 0.025453947 -0.336506 0.57970536 -0.23841298
0.56075424 -0.38421506 -0.07884642 0.17102452 -0.06619503 0.075424895 0.08697556 0.10529312
0.23933259 0.08931096 0.051395006 -0.110038124 -0.06202935 0.010876357 0.20808788 0.08307677
-0.11673124 -0.12891413 -0.1403782 -0.20456405 -0.02218852 0.09597523 -0.23752408 -0.19683352
